Vanilla Policy Gradient/model_weights.pth (torch, 9397 bytes, 16 tensors)

layers.0.weight f4 [16, 17]
0.036224905 -0.23236781 0.121442005 0.096558295 0.14957349 -0.08153796 0.14541282 0.1995188
-0.038813554 0.132593 -0.14014168 0.18895344 -0.24076428 0.0020333582 0.115410864 -0.15396455
-0.23883149 0.04923226 0.06967308 0.16334234 -0.05878585 -0.24069808 -0.10287148 -0.18161756
0.042116925 -0.113575846 -0.1481028 0.18651935 -0.010551761 0.05718077 0.2030212 0.23159617
0.0881554 -0.12017665 0.041491546 -0.08750983 0.22100729 0.013151081 0.14526382 -0.04143829
-0.01178832 0.10769981 -0.20396647 -0.21959864 -0.1338621 0.19878729 0.21921897 0.110218786
0.15573108 0.20079517 0.095502265 0.04472003 -0.010078781 0.12113438 -0.17074849 -0.19690716
0.07757579 -0.13554549 0.16558686 0.13965821 -0.21173857 -0.15280993 0.21258649 -0.08328338
0.088890694 0.2363591 0.12960073 0.10493205 0.07157428 -0.18134058 0.12686738 -0.19186506
-0.03543253 -0.13433984 0.19079255 -0.17429921 0.13086164 -0.12639105 -0.14378949 0.08170305
-0.05873363 0.03494833 0.04470812 -0.035870466 0.059583746 -0.11734132 0.037051745 0.07575222
-0.1628596 -0.14784427 -0.13252735 -0.12325554 0.17358173 -0.013468021 0.05485638 0.0992663
-0.07676916 -0.19817917 0.07673261 0.06525415 0.07065935 0.03234548 -0.20600575 -0.09311646
-0.24160625 -0.12037716 0.19975947 0.16908897 -0.07849374 0.12802827 -0.20295386 0.15632257
-0.20954733 0.0032340942 0.06265263 0.20302366 0.026357241 0.04805523 0.029431421 -0.083617926
-0.013510753 -0.17272463 0.01884534 0.12512459 0.10298817 -0.063078776 -0.18237655 0.109186634
-0.12783164 0.09381369 0.080085136 -0.037795287 0.16810127 0.15536374 -0.10726939 0.14446948
0.0018054121 -0.21044281 0.07440389 0.1898824 -0.23675905 0.09258878 -0.1804682 0.20161137
-0.23787911 -0.050852805 0.16195452 0.083668634 0.08547873 -0.080564275 0.08444517 -0.15539593
-0.23160586 0.008153903 -0.14629649 0.2312774 -0.15158933 0.06228617 0.11970922 -0.05688621
0.22112985 -0.05403671 -0.13261452 0.10034366 0.037890207 -0.1601969 0.17952935 -0.23432207
0.054625656 -0.14986594 -0.15194955 0.08767976 0.12954117 -0.08430336 -0.12770471 0.09182523
0.10374741 -0.13183981 0.12545587 -0.11989227 0.16963434 -0.07520679 0.0021390624 0.066267855
-0.109348 0.18790261 0.117032506 0.22159569 -0.13716772 -0.043427095 0.076481365 -0.23221609
-0.015837545 0.13235243 0.027377477 -0.19384457 -0.16808623 -0.14044796 0.13806036 0.11063021
-0.01788157 -0.08429919 -0.052108333 -0.1405835 0.19308776 0.1354469 0.13077097 -0.026321042
-0.21114743 -0.12775812 -0.0060380283 0.07013444 0.059648365 0.10963756 0.08168079 0.07035044
-0.010500962 0.21248978 0.12309708 0.038989548 0.15559669 0.22901738 0.13142535 -0.1552
0.02346842 0.10104158 0.0067197853 -0.06440644 0.05412047 -0.08371712 0.22999936 -0.15812512
-0.0299432 -0.055013664 0.1300516 -0.061836056 -0.17894992 0.112709016 -0.19052584 -0.006244464
-0.19671729 0.24135084 0.16620524 0.037823416 0.029957455 -0.12011796 -0.19776386 0.19822536
-0.05259114 -0.12413683 0.20629224 -0.15771398 0.10373888 0.114271216 -0.22287324 -0.07139323
00000000: 9160 143d d4f1 6dbe 96b6 f83d 5bc0 c53d
00000010: cb29 193e 60fd a6bd 19e7 143e a84e 4c3e
00000020: f6fa 1ebd 76c6 073e 4d81 0fbe 037d 413e
00000030: e98a 76be 1742 053b 885c ec3d e2a8 1dbe
00000040: 3e90 74be c4a7 493d c3b0 8e3d 3743 273e
00000050: 6ec9 70bd 8f79 76be 48ae d2bd f4f9 39be
00000060: cc82 2c3d 749a e8bd 43a8 17be eefe 3e3e
00000070: 4be1 2cbc 6236 6a3d cae4 4f3e 8c27 6d3e
00000080: d18a b43d 2d1f f6bd 0af3 293d 5b38 b3bd
00000090: bc4f 623e a277 573c 0ac0 143e 32bb 29bd
000000a0: cc23 41bc b891 dc3d 96dc 50be 77de 60be
000000b0: 2513 09be e58e 4b3e f07a 603e 63ba e13d
000000c0: f877 1f3e 409d 4d3e b196 c33d 5a2c 373d
000000d0: 7921 25bc 4d15 f83d b1d8 2ebe 08a2 49be
000000e0: 0ee0 9e3d 70cc 0abe 9a8f 293e 9002 0f3e
000000f0: ffd1 58be 357a 1cbe 46b0 593e 7a90 aabd
00000100: 530c b63d 1f08 723e 0eb6 043e 9de6 d63d
00000110: 8995 923d 58b1 39be 86e9 013e 4678 44be
00000120: b321 11bd 6290 09be 1f5f 433e 7e7b 32be
00000130: 9800 063e a86c 01be 8d3d 13be ee53 a73d
00000140: ad92 70bd fb25 0f3d dd1f 373d e9ec 12bd
00000150: 160e 743d a550 f0bd 92c3 173d fb23 9b3d
00000160: abc4 26be 7d64 17be 40b5 07be 676d fcbd
00000170: 69bf 313e f9a8 5cbc 15b1 603d 214c cb3d
00000180: 2639 9dbd 7bef 4abe fd25 9d3d f8a3 853d
00000190: d9b5 903d b27c 043d 2cf3 52be d8b3 bebd
000001a0: a167 77be 4d88 f6bd bf8d 4c3e a925 2d3e
000001b0: 53c1 a0bd d819 033e 23d3 4fbe 0613 203e
000001c0: 9393 56be 19f3 533b 0650 803d 6fe5 4f3e
000001d0: 24eb d73c 90d5 443d 2a1a f13c e03f abbd
000001e0: 355c 5dbc bade 30be 8b61 9a3c a920 003e
000001f0: 76eb d23d 722f 81bd ebc0 3abe 3e9d df3d
00000200: 4ce6 02be 6421 c03d ad03 a43d 3bcf 1abd
00000210: bd22 2c3e ac17 1f3e 0eb0 dbbd cfef 133e
00000220: 94a3 ec3a 527e 57be 1161 983d 8870 423e
00000230: f770 72be 309f bd3d a8cc 38be 3673 4e3e
00000240: 9596 73be 084b 50bd 68d7 253e 765a ab3d
00000250: 790f af3d e2fe a4bd 97f1 ac3d 1c20 1fbe
00000260: 162a 6dbe f397 053c bfce 15be fcd3 6c3e
00000270: 3c3a 1bbe c81f 7f3d 1c2a f53d 8401 69bd
00000280: dd6f 623e 9955 5dbd 1acc 07be fa80 cd3d
00000290: c332 1b3d a80a 24be 8bd6 373e 20f2 6fbe
000002a0: 27bf 5f3d 7576 19be aa98 1bbe 7291 b33d
000002b0: 71a6 043e 3da7 acbd 06c5 02be de0e bc3d
000002c0: 8679 d43d 0401 07be 8177 003e 148a f5bd
000002d0: a0b4 2d3e 0406 9abd 832f 0c3b 71b7 873d
000002e0: d8f1 dfbd 8b69 403e bdae ef3d fbe9 623e
000002f0: b275 0cbe 9ce0 31bd 43a2 9c3d 0eca 6dbe
00000300: bdbd 81bc 6587 073e bb46 e03c 317f 46be
00000310: cc1e 2cbe 97d1 0fbe b25f 0d3e 1792 e23d
00000320: 5f7c 92bc 0ea5 acbd 8c6f 55bd 1ff5 0fbe
00000330: ccb8 453e 98b2 0a3e d3e8 053e 3a9f d7bc
00000340: 0837 58be 06d3 02be a7da c5bb a5a2 8f3d
00000350: d851 743d a889 e03d 4248 a73d e413 903d
00000360: 3a0c 2cbc ec96 593e 521a fc3d 81b3 1f3d
00000370: bd54 1f3e 8883 6a3e 5e94 063e c0ec 1ebe
00000380: d840 c03c e3ee ce3d a531 dc3b 86e7 83bd
00000390: 6dad 5d3d e273 abbd f484 6b3e 8deb 21be
000003a0: 714b f5bc 0256 61bd 3f2c 053e ce47 7dbd
000003b0: a63e 37be fcd3 e63d 3519 43be 5c9e ccbb
000003c0: 4270 49be ad24 773e b531 2a3e baec 1a3d
000003d0: 5669 f53c 6800 f6bd 9c82 4abe 97fb 4a3e
000003e0: cf69 57bd 733b febd 463e 533e c67f 21be
000003f0: 0d75 d43d 0707 ea3d e238 64be 9d36 92bd

layers.0.bias f4 [16]
0.23620616 -0.22587381 -0.038379926 0.21549737 0.107543685 0.0072928886 0.15639707 -0.074778765
0.22402263 -0.053274516 -0.20780367 0.2207033 -0.10227652 0.09075475 -0.21968801 -0.17786947
00000000: 07e0 713e 774b 67be 4534 1dbd 58ab 5c3e
00000010: dd3f dc3d 2ff9 ee3b 8e26 203e 9c25 99bd
00000020: 3066 653e 6136 5abd 7cca 54be 0c00 623e
00000030: 5a76 d1bd a0dd b93d e5f5 60be 6a23 36be

layers.2.weight f4 [16, 16]
-0.11715087 0.004963696 -0.22133553 0.10466415 -0.093128264 0.11834285 0.062198848 -0.09365299
-0.05173534 0.20879418 0.0054827034 0.0076209903 0.033011317 -0.11106709 0.22533962 -0.027882814
0.20586884 -0.062404543 -0.23960131 0.18059012 0.19758335 0.07865885 -0.2017892 0.17263862
-0.011407673 -0.068891615 -0.20219138 0.08151576 0.13090393 -0.15243328 -0.0047804117 -0.011081219
-0.08422238 -0.23736927 0.029404879 -0.025951266 0.09338841 0.21563727 0.22607931 -0.008066654
-0.12785238 0.21103781 0.23117316 0.04344219 0.24751326 0.06625566 -0.12451354 0.17937374
0.16185364 -0.1626791 -0.13160622 -0.09438321 0.1148895 -0.21278793 0.18525535 0.03948748
-0.112776935 0.059000313 -0.037790447 -0.0012443662 -0.10633078 -0.09993923 -0.08077434 0.11205661
-0.20193002 -0.11320004 -0.07280466 0.24393338 0.04195288 0.0780358 0.12935627 -0.15595898
-0.18763068 -0.13425216 0.050046533 0.22315705 -0.1831463 0.101430714 -0.17394805 0.20458242
0.015990585 0.11974847 0.14593947 0.18701348 -0.22832662 0.2363661 0.020095825 -0.049515128
-0.123699725 0.12729076 0.083723664 0.0034019947 0.23537704 -0.086226344 0.110152274 -0.21678296
-0.08229348 -0.14664862 -0.0773862 0.19947639 0.062731534 0.1845805 0.17323694 0.023530424
-0.22217023 0.16997308 0.15441987 -0.15347463 -0.15516451 -0.07797435 -0.22399557 0.027147532
-0.115490824 -0.13224965 -0.24717128 0.15492418 -0.14061385 0.08133981 0.17988968 0.12940049
0.07490775 -0.22609887 0.15802369 0.22761714 -0.1756716 0.22277367 -0.16912848 0.24549991
0.123559505 -0.026098758 -0.08595368 0.21637407 0.034798205 0.046117514 0.1561704 0.090388566
-0.08228013 -0.16208795 0.10427484 -0.12729117 -0.018568844 -0.20261666 -0.21448475 -0.19234988
0.17109808 0.14173838 0.22999454 0.10138062 -0.18198714 0.19023696 0.17143494 0.06759721
0.060490727 -0.09670943 -0.15829957 0.2232343 0.030348092 -0.20749438 -0.13290381 -0.15961498
0.013922006 0.22670865 -0.15155849 0.21361351 0.19068828 -0.124711424 -0.103699714 0.01858139
-0.043150306 0.1209434 -0.17679799 -0.1548166 0.11706564 0.0042518377 -0.07556948 0.10393429
0.21578872 0.032752514 -0.107999295 -0.09402576 0.14248091 -0.21721414 -0.06632385 -0.025992244
-0.19044906 0.0009520948 -0.0933435 0.1554183 -0.19849688 -0.06387374 -0.08786368 0.24007964
-0.210401 -0.23461473 -0.23846179 -0.14432666 0.061035544 0.13800839 -0.16554186 -0.04640335
-0.2170873 -0.013402849 0.080611795 0.08054313 -0.16135648 0.11858761 -0.03506574 0.13454887
0.021865338 -0.11925167 0.008956313 0.08896169 0.09188801 0.052710176 -0.15242761 -0.084677935
0.14607012 -0.23730049 0.17462641 0.03109926 -0.19276863 -0.105305225 0.0224607 0.18013978
0.015666962 0.16416907 0.18965703 0.13828775 -0.20666003 -0.0677748 0.10418749 0.12099388
0.0332008 -0.22397953 0.1254971 -0.036126435 -0.1541295 0.04302159 0.0674859 0.115618706
-0.14924523 -0.043908715 -0.1567119 0.111037016 -0.23625109 0.04703632 0.016630799 0.08607632
0.019071937 -0.18103987 -0.14441666 0.18520984 -0.08338666 -0.15982848 -0.015535533 -0.16573772
00000000: ccec efbd 80a6 a23b c8a5 62be 285a d63d
00000010: 08ba bebd bc5d f23d 38c4 7e3d 24cd bfbd
00000020: 70e8 53bd 24ce 553e 40a8 b33b 80b9 f93b
00000030: e036 073d 2477 e3bd 6ebf 663e 806a e4bc
00000040: 48cf 523e e89b 7fbd 0c5a 75be 9eec 383e
00000050: 4a53 4a3e e417 a13d d4a1 4ebe 2ec8 303e
00000060: 40e7 3abc 0c17 8dbd 420b 4fbe bcf1 a63d
00000070: ae0b 063e 7817 1cbe 00a5 9cbb 008e 35bc
00000080: c87c acbd ee10 73be 80e2 f03c c097 d4bc
00000090: 6c42 bf3d 04d0 5c3e 5681 673e 002a 04bc
000000a0: bceb 02be 4c1a 583e a8b8 6c3e 70f0 313d
000000b0: 1e74 7d3e 0cb1 873d f400 ffbd c0ad 373e
000000c0: f6bc 253e 5a95 26be c8c3 06be fc4b c1bd
000000d0: 304b eb3d 14e5 59be 94b3 3d3e a0bd 213d
000000e0: 98f7 e6bd 50aa 713d 28ca 1abd 001a a3ba
000000f0: f4c3 d9bd f0ac ccbd 046d a5bd f07d e53d
00000100: bec6 4ebe 6cd5 e7bd 9c1a 95bd acc9 793e
00000110: c8d6 2b3d 3cd1 9f3d f875 043e b6b3 1fbe
00000120: 4222 40be 6679 09be 98fd 4c3d 4883 643e
00000130: b48a 3bbe e8ba cf3d 701f 32be 0e7e 513e
00000140: b0fe 823c b03e f53d 2871 153e 7680 3f3e
00000150: 74ce 69be f409 723e 00a0 a43c 60d0 4abd
00000160: 4856 fdbd 8258 023e 5077 ab3d 00f4 5e3b
00000170: ae06 713e 7097 b0bd 8497 e13d 5afc 5dbe
00000180: 7c89 a8bd 0e2b 16be a87c 9ebd 8a43 4c3e
00000190: 6479 803d ac02 3d3e 0665 313e e0c2 c03c
000001a0: 9880 63be 6c0d 2e3e 3e20 1e3e 7428 1dbe
000001b0: 72e3 1ebe 04b1 9fbd 185f 65be 8064 de3c
000001c0: 7486 ecbd 746c 07be 781a 7dbe 72a4 1e3e
000001d0: 14fd 0fbe 7c95 a63d 0035 383e 9081 043e
000001e0: 3c69 993d 7686 67be f6d0 213e 7814 693e
000001f0: 42e3 33be c81e 643e 0430 2dbe 5464 7b3e
00000200: c40c fd3d 10cd d5bc 7c08 b0bd 2a91 5d3e
00000210: 9088 0e3d b8e5 3c3d 22eb 1f3e a41d b93d
00000220: 7c82 a8bd 62fa 25be 0c8e d53d 9e58 02be
00000230: b01d 98bc be7a 4fbe e4a1 5bbe 5ef7 44be
00000240: 5634 2f3e de23 113e b083 6b3e a4a0 cf3d
00000250: d65a 3abe 7acd 423e a48c 2f3e 6870 8a3d
00000260: 20c5 773d 980f c6bd 4819 22be 8897 643e
00000270: 909c f83c 6879 54be f017 08be 1c72 23be
00000280: 2019 643c 5026 683e 2632 1bbe 80bd 5a3e
00000290: ca43 433e b468 ffbd 8460 d4bd 0038 983c
000002a0: 60be 30bd 2cb1 f73d 880a 35be 3e88 1ebe
000002b0: 1cc0 ef3d 0053 8b3b 2cc4 9abd 80db d43d
000002c0: b8f7 5c3e 8027 063d bc2e ddbd 9490 c0bd
000002d0: 84e6 113e 626d 5ebe ccd4 87bd b0ed d4bc
000002e0: 1405 43be 0096 793a e02a bfbd fa25 1f3e
000002f0: c442 4bbe 3cd0 82bd e0f1 b3bd 70d7 753e
00000300: 5c73 57be d83e 70be 542f 74be 5eca 13be
00000310: 6800 7a3d 1252 0d3e ce83 29be 7011 3ebd
00000320: 224c 5ebe a097 5bbc cc17 a53d ccf3 a43d
00000330: a23a 25be 10de f23d 18a1 0fbd 2ec7 093e
00000340: f01e b33c 383a f4bd 80bd 123c 8c31 b63d
00000350: c82f bc3d a0e6 573d fc15 1cbe a06b adbd
00000360: 6893 153e e6fe 72be 44d1 323e e0c3 fe3c
00000370: 2465 45be 44aa d7bd 80ff b73c 9076 383e
00000380: 0058 803c f01b 283e 7435 423e 4e9b 0d3e
00000390: b09e 53be 84cd 8abd 4060 d53d a4cb f73d
000003a0: 90fd 073d e45a 65be 5082 003e 50f9 13bd
000003b0: 20d4 1dbe 6837 303d 0c36 8a3d 80c9 ec3d
000003c0: bed3 18be a0d9 33bd 1679 20be 6067 e33d
000003d0: ceeb 71be 28a9 403d 503d 883c c848 b03d
000003e0: c03c 9c3c 8462 39be f6e1 13be a6a7 3d3e
000003f0: a0c6 aabd 14aa 23be c088 7ebc 26b7 29be

layers.2.bias f4 [16]
-0.057540476 0.16470593 -0.0486421 0.0046877265 0.13930136 -0.07282919 -0.066918164 -0.050311625
0.1575627 0.0596734 0.23223898 0.2447801 -0.0019066632 -0.15995917 -0.020367324 0.10182476
00000000: 90af 6bbd aca8 283e f03c 47bd 809b 993b
00000010: 04a5 0e3e 7827 95bd 640c 89bd 9013 4ebd
00000020: 1e58 213e 186c 743d 0ed0 6d3e a2a7 7a3e
00000030: 00e9 f9ba 56cc 23be 60d9 a6bc 8089 d03d

layers.4.weight f4 [16, 16]
0.09182632 -0.09825003 -0.012643009 -0.14494196 0.02499038 -0.14077172 -0.09945154 0.15345281
-0.097269505 0.016162902 -0.013437003 0.15782681 -0.20533335 -0.08808616 -0.06542423 0.14954013
-0.08092663 0.030575395 0.059283316 -0.071029454 0.21917152 -0.13559514 -0.034993082 0.13964248
-0.19118977 -0.0061671436 -0.2460792 -0.12847817 -0.19734854 0.013368398 0.2202892 0.07627931
0.22652617 -0.11814782 0.072714925 0.21961677 -0.009820223 -0.024902761 0.0797334 -0.1450195
-0.09577489 -0.031237572 0.16800961 -0.16996875 -0.051602066 0.17321172 -0.071113825 -0.07408607
0.20692635 -0.23292595 -0.13689268 0.082092345 0.05489385 -0.13871881 -0.15639585 0.23926029
-0.20894942 -0.10148254 -0.13933048 0.1143184 -0.23292947 0.060776383 0.08883101 -0.24649784
-0.14745161 -0.10297796 -0.034873873 0.13858008 -0.22707206 -0.071355045 -0.028851867 0.020987034
0.025321305 -0.23543778 -0.011912137 0.1401355 -0.048120677 -0.06957346 0.14088637 -0.08315793
0.043217123 -0.1682483 -0.23929676 0.13603869 0.032353103 0.05488971 -0.016522259 0.060373187
-0.04256189 0.02933073 -0.20687902 -0.15418017 -0.08687636 0.14819187 0.03201431 -0.099348366
-0.1392327 0.22717321 0.13423797 -0.16333628 0.24283308 -0.04634145 -0.103042275 0.14775285
-0.14430767 -0.07845956 0.19171393 0.1301643 -0.23650673 -0.035743743 0.049411356 -0.057620257
-0.09377 0.1260764 0.12645635 -0.08584535 0.2210258 0.15555075 0.056458473 0.11747524
0.048356384 -0.20449209 0.1516357 0.20269856 0.24636084 0.007323116 0.037399173 -0.24711987
-0.20744714 -0.17208716 0.22642323 -0.22209767 0.05573556 -0.21823448 0.087983936 -0.05377838
0.13352534 -0.15756348 -0.043627113 0.116445065 -0.1286067 -0.068204254 -0.10100746 -0.19508064
-0.06493023 -0.1312119 0.09077811 0.18352497 -0.014978737 -0.11515427 -0.20014456 0.18931401
-0.06272656 -0.03873405 -0.09304613 0.03753382 -0.23215383 0.0679225 0.0016154349 -0.22727752
-0.12012243 0.20709458 -0.1482827 0.08490673 -0.23306027 0.13954869 0.002215296 0.017837137
0.055457056 0.005393088 -0.09070119 0.21640834 -0.02228403 -0.23072815 -0.23009011 0.24755862
-0.009753138 -0.15382135 0.05877939 -0.14118302 -0.010531247 -0.1011236 -0.08639917 0.011161953
0.15801623 -0.040365696 -0.12720227 -0.055794924 0.06950998 -0.18200305 0.10957876 0.24993959
-0.04616806 0.17499605 -0.14292842 0.24371397 0.07765114 -0.21235323 0.17529148 -0.10123882
0.23020273 -0.0908393 0.2245087 0.13209099 -0.23901996 0.048347145 0.18981344 -0.18478459
0.124866486 -0.17792925 -0.17020223 0.06406179 0.090679586 -0.16571519 -0.23737311 -0.044704735
-0.21185535 0.11281124 -0.16067734 -0.030096233 0.029532641 -0.0598239 0.06888032 0.030017346
0.13577873 0.16902143 -0.19952515 0.22652534 -0.02814418 -0.17104244 -0.09040132 0.117289424
-0.24809784 0.18356735 0.10401806 0.031238198 0.1318528 -0.017688304 0.14887059 -0.011280239
0.00975588 0.091768056 -0.02216971 0.006161034 -0.1529341 -0.03797394 0.24215448 -0.05965364
-0.223697 0.16406986 0.03358081 -0.15979359 -0.013324916 -0.11908609 0.15440714 0.065430015
00000000: 700f bc3d 5037 c9bd a024 4fbc aa6b 14be
00000010: a0b8 cc3c 7626 10be 40ad cbbd bc22 1d3e
00000020: 3c35 c7bd 1068 843c e026 5cbc 5a9d 213e
00000030: e842 52be 8466 b4bd 24fd 85bd 0c21 193e
00000040: dcbc a5bd 4079 fa3c 10d3 723d e477 91bd
00000050: 806e 603e 74d9 0abe e854 0fbd 70fe 0e3e
00000060: 40c7 43be c015 cabb 30fc 7bbe c88f 03be
00000070: bc15 4abe 2007 5b3c 7e93 613e 5438 9c3d
00000080: 7af6 673e 7cf7 f1bd 90eb 943d 38e3 603e
00000090: 00e5 20bc e000 ccbc 444b a33d fe7f 14be
000000a0: a025 c4bd f0e5 ffbc b60a 2c3e 4a0c 2ebe
000000b0: b05c 53bd 6a5e 313e 20a4 91bd 70ba 97bd
000000c0: 80e4 533e 2484 6ebe 982d 0cbe 0820 a83d
000000d0: 60d8 603d 4e0c 0ebe 3c26 20be a600 753e
000000e0: d6f6 55be 14d6 cfbd a6ac 0ebe c41f ea3d
000000f0: 1085 6ebe a8f0 783d 08ed b53d ee69 7cbe
00000100: 8efd 16be 1ce6 d2bd e8d7 0ebd f0e7 0d3e
00000110: 9485 68be 9822 92bd c05a ecbc 00ed ab3c
00000120: a06e cf3c 9a16 71be 202b 43bc ae7f 0f3e
00000130: 301a 45bd 887c 8ebd 8444 103e b44e aabd
00000140: 7004 313d 4849 2cbe 360a 75be ba4d 0b3e
00000150: b084 043d 08d4 603d b059 87bc e049 773d
00000160: 6055 2ebd 0047 f03c 18d8 53be 68e1 1dbe
00000170: 3cec b1bd 9cbf 173e 7021 033d 2877 cbbd
00000180: 0493 0ebe 18a0 683e ae75 093e a041 27be
00000190: 3ca9 783e 88d0 3dbd d407 d3bd 864c 173e
000001a0: 64c5 13be 68af a0bd a850 443e ca49 053e
000001b0: d22e 72be 0868 12bd 9063 4a3d 3803 6cbd
000001c0: 7c0a c0bd 2c1a 013e c67d 013e b0cf afbd
000001d0: 9654 623e b248 1f3e 0041 673d dc96 f03d
000001e0: 5811 463d 6066 51be 6446 1b3e 3690 4f3e
000001f0: 0446 7c3e c0f6 ef3b e02f 193d fe0c 7dbe
00000200: 066d 54be 9e37 30be 7edb 673e 926d 63be
00000210: f84a 643d dc78 5fbe ec30 b43d b846 5cbd
00000220: deba 083e 5258 21be 58b2 32bd c07a ee3d
00000230: 7ab1 03be acae 8bbd 00dd cebd 38c3 47be
00000240: 24fa 84bd 6a5c 06be e0e9 b93d f8ed 3b3e
00000250: 6069 75bc 00d6 ebbd b2f2 4cbe 88db 413e
00000260: c876 80bd 98a7 1ebd f88e bebd 10bd 193d
00000270: bcb9 6dbe f41a 8b3d 00bd d33a 70bb 68be
00000280: c002 f6bd 9a10 543e 6cd7 17be 94e3 ad3d
00000290: 5aa7 6ebe dae5 0e3e 802e 113b 301f 923c
000002a0: f026 633d 80b8 b03b 8cc1 b9bd 269a 5d3e
000002b0: 008d b6bc 0044 6cbe be9c 6bbe 0280 7d3e
000002c0: a0cb 1fbc 5883 1dbe a8c2 703d 4892 10be
000002d0: 408b 2cbc e419 cfbd 0cf2 b0bd a0e0 363c
000002e0: 02cf 213e 8056 25bd 5041 02be 3889 64bd
000002f0: 405b 8e3d 025f 3abe d46a e03d 2af0 7f3e
00000300: b81a 3dbd 2a32 333e d45b 12be 2890 793e
00000310: 9007 9f3d 2073 59be 9c7f 333e 4c56 cfbd
00000320: 44ba 6b3e f409 babd 9ce5 653e dc42 073e
00000330: a6c1 74be a807 463d 745e 423e 2c38 3dbe
00000340: 00ba ff3d 1633 36be 7e49 2ebe d432 833d
00000350: 38b6 b93d 3eb1 29be f011 73be 501c 37bd
00000360: 9cf0 58be 9409 e73d 9a88 24be 608c f6bc
00000370: 70ee f13c e809 75bd 2011 8d3d f0e6 f53c
00000380: 9409 0b3e f413 2d3e 5250 4cbe 42f6 673e
00000390: a08e e6bc c025 2fbe 5424 b9bd 7035 f03d
000003a0: 5c0d 7ebe 14f9 3b3e 6c07 d53d 40e7 ff3c
000003b0: 6c04 073e 10e7 90bc 8871 183e c0d0 38bc
000003c0: 20d7 1f3c e4f0 bb3d 409d b5bc 80e2 c93b
000003d0: c29a 1cbe 908a 1bbd 58f7 773e 6057 74bd
000003e0: d410 65be ee01 283e 088c 093d eea0 23be
000003f0: c050 5abc 68e3 f3bd e81c 1e3e 2c00 863d

layers.4.bias f4 [16]
-0.01225391 0.23604113 0.0019764602 -0.18151826 -0.13415974 -0.0899722 0.17689651 -0.01460284
-0.16969919 0.2018531 -0.107370764 -0.2439408 0.14681748 -0.085253805 -0.105817735 0.051959336
00000000: a0c4 48bc c4b4 713e 8087 013b ecdf 39be
00000010: 2c61 09be 5843 b8bd 5c24 353e c040 6fbc
00000020: a0c5 2dbe 94b2 4e3e 34e5 dbbd 9ecb 79be
00000030: 5257 163e 8c99 aebd f8b6 d8bd 50d3 543d

layers.6.weight f4 [8, 16]
-0.099143475 0.15007731 -0.17601475 0.12783304 0.13331214 0.15790716 0.09498933 0.105644464
-0.026497483 -0.07685503 0.030445099 -0.021765888 0.06904751 0.2298213 -0.17806375 -0.21339646
-0.057403922 -0.16550127 0.036541015 -0.10289851 0.034291625 -0.1901044 0.016234666 -0.07454243
-0.05578178 0.13574764 -0.098763466 0.22933266 -0.24312732 -0.2144531 -0.0695678 0.07700738
0.09834015 0.10358924 0.24971575 -0.032880813 -0.10061237 -0.09628004 0.18514013 -0.18148664
0.24577639 -0.1623933 -0.057464063 0.041853994 -0.20663843 -0.09120548 0.014520854 -0.20850652
0.16793588 -0.026653439 0.122050524 0.14607736 -0.15617189 -0.0252437 0.18125638 0.108062774
-0.008448809 0.19305569 -0.2218445 0.06996465 0.088929385 -0.08296001 0.1438672 -0.03443843
-0.15017849 0.23136136 -0.20018467 0.067394495 -0.13046977 -0.12970304 0.15410641 0.010540366
0.12715197 0.16488093 -0.15063733 0.009528577 0.08827597 0.07872149 -0.0021296442 -0.060372025
-0.24771455 -0.09172049 -0.17057729 0.14102715 0.14910418 -0.18045849 0.13370097 -0.03819877
-0.1039879 0.20618924 0.2008031 -0.17603773 -0.10939032 -0.0979085 0.015397668 -0.23344302
0.059752494 0.098685324 -0.054065526 0.025161862 0.05630809 -0.14755088 -0.15249088 0.16944775
0.11606246 -0.21104214 -0.19787356 -0.047982603 0.2092934 0.10447344 -0.061417103 -0.073027074
0.007114917 0.04190913 0.040841192 -0.18378115 0.08428863 0.119585335 0.21898022 -0.1782766
-0.15279701 -0.047437876 -0.14135647 -0.07634455 -0.1766837 -0.18829802 0.16326898 0.17813745
00000000: bc0b cbbd dead 193e 363d 34be aae6 023e
00000010: fa82 083e 6ab2 213e c489 c23d 205c d83d
00000020: 4011 d9bc 2c66 9dbd 0068 f93c 604e b2bc
00000030: c868 8d3d 4656 6b3e 5856 36be 9a84 5abe
00000040: 6020 6bbd 2a79 29be 08ac 153d 74bc d2bd
00000050: 6075 0c3d baaa 42be 90fe 843c b4a9 98bd
00000060: 707b 64bd 6e01 0b3e 8044 cabd 2ed6 6a3e
00000070: 5ef6 78be 9899 5bbe 9079 8ebd 0cb6 9d3d
00000080: 9066 c93d 9826 d43d 7cb5 7f3e 08ae 06bd
00000090: dc0d cebd 782e c5bd 6095 3d3e a2d7 39be
000000a0: ceac 7b3e 6e4a 26be 705f 6bbd 186f 2b3d
000000b0: 0699 53be f0c9 babd e0e8 6d3c bc82 55be
000000c0: 62f7 2b3e 5058 dabc a0f5 f93d 4e95 153e
000000d0: 86eb 1fbe e0cb cebc 469b 393e 0450 dd3d
000000e0: e06c 0abc 64b0 453e 342b 63be a049 8f3d
000000f0: 9c20 b63d f0e6 a9bd ec51 133e 500f 0dbd
00000100: 64c8 19be fee9 6c3e 36fd 4cbe 2006 8a3d
00000110: de99 05be e0d0 04be 12ce 1d3e 80b1 2c3c
00000120: 2034 023e 8cd6 283e ac40 1abe c01d 1c3c
00000130: 08ca b43d bc38 a13d 8091 0bbb a848 77bd
00000140: e2a8 7dbe f4d7 bbbd d0ab 2ebe 6c69 103e
00000150: c4ae 183e 1cca 38be e8e8 083e 5076 1cbd
00000160: 9cf7 d4bd 4623 533e 549f 4d3e 3c43 34be
00000170: 0808 e0bd 4084 c8bd 8046 7c3c b00b 6fbe
00000180: 08bf 743d 881b ca3d d073 5dbd 4020 ce3c
00000190: 50a3 663d 9417 17be 9226 1cbe b683 2d3e
000001a0: 28b2 ed3d 6e1b 58be 5e9f 4abe 6889 44bd
000001b0: 0251 563e 2cf6 d53d 8090 7bbd 388f 95bd
000001c0: 4024 e93b e8a8 2b3d 1849 273d 2031 3cbe
000001d0: 849f ac3d 28e9 f43d 5a3c 603e 248e 36be
000001e0: d276 1cbe 384e 42bd c0bf 10be 885a 9cbd
000001f0: 92ec 34be 32d1 40be fc2f 273e aa69 363e

layers.6.bias f4 [8]
-0.1950283 -0.114215314 0.10783559 0.18436798 0.15370995 -0.03475502 0.21047792 -0.22604397
00000000: 80b5 47be b8e9 e9bd e8d8 dc3d f6ca 3c3e
00000010: 2466 1d3e 485b 0ebd 8687 573e 1278 67be

layers.8.weight f4 [8, 8]
-0.2588662 -0.08809939 -0.20357716 -0.17597501 0.14898695 0.214483 -0.105222896 -0.047233466
-0.31343707 -0.16583313 0.16625245 -0.17684944 0.3057812 0.34093133 0.3275856 -0.21051288
-0.16311285 0.094668984 -0.28343368 0.02844554 0.34738052 -0.16581978 -0.22854507 -0.13689086
0.011172076 0.25765842 -0.006898807 0.00325361 0.26904416 -0.28063643 0.04676138 -0.06297211
-0.17018248 -0.18864858 0.027468028 -0.07182249 0.027076146 0.002598901 0.05920823 0.0522996
0.2156537 0.059298467 0.28380683 -0.21567659 -0.27529305 -0.068257876 -0.2466318 0.01739118
0.14498714 0.04168871 -0.10157285 -0.10846369 -0.09944637 0.34510723 0.09688287 0.06596867
-0.14010236 -0.0947258 -0.15510511 -0.21235938 -0.024003262 -0.027985886 0.23113108 -0.27562362
00000000: 1c8a 84be 746d b4bd 8876 50be cb32 34be
00000010: 0990 183e 6ea1 5b3e 1a7f d7bd e177 41bd
00000020: d37a a0be 29d0 29be 153e 2a3e 0518 35be
00000030: 5a8f 9c3e 8d8e ae3e 4db9 a73e b090 57be
00000040: 0e07 27be d0e1 c13d 381e 91be 9f06 e93c
00000050: dcdb b13e a9cc 29be b807 6abe 1e2d 0cbe
00000060: 150b 373c ceeb 833e 630f e2bb 853a 553b
00000070: 28c0 893e 94af 8fbe dc88 3f3d 86f7 80bd
00000080: 5144 2ebe 182d 41be a104 e13c ab17 93bd
00000090: cbce dd3c 5352 2a3b 5484 723d 1b38 563d
000000a0: 53d4 5c3e f3e2 723d 214f 913e 53da 5cbe
000000b0: 36f3 8cbe c9ca 8bbd 0c8d 7cbe f377 8e3c
000000c0: 8277 143e c8c1 2a3d 6d05 d0bd 3622 debd
000000d0: 8aaa cbbd e5b1 b03e 876a c63d 951a 873d
000000e0: fe76 0fbe 9aff c1bd e0d3 1ebe bd74 59be
000000f0: 7da2 c4bc a842 e5bc a0ad 6c3e 8a1e 8dbe

layers.8.bias f4 [8]
0.033722706 -0.014856806 -0.28449687 0.29031575 0.034904502 0.04662162 -0.050181597 -0.04939505
00000000: d220 0a3d f669 73bc 93a9 91be 44a4 943e
00000010: 06f8 0e3d 50f6 3e3d 388b 4dbd 7752 4abd

layers.10.weight f4 [8, 8]
0.115790375 0.2379726 -0.34785256 0.24801907 0.26356018 0.025299784 -0.21596558 -0.2238535
0.2704727 -0.10646121 -0.20626469 0.12059684 0.14843935 0.1392832 -0.15691161 0.22725484
-0.1787117 -0.18336627 -0.08722484 0.18061222 0.019434713 -0.21376503 -0.009895279 -0.0849321
-0.0007191095 -0.117476664 0.3274175 -0.09476289 0.2807934 -0.025705362 -0.08885719 -0.13457236
0.04259318 0.06732579 -0.1829411 0.108085215 0.25202695 -0.21757594 -0.15416327 0.23826295
0.18614231 -0.21520838 -0.09659598 -0.22510645 0.038378034 0.092971645 0.053235896 -0.30376554
0.33897585 -0.2715712 0.13113856 0.19839533 -0.073406026 -0.19610848 0.29409203 -0.10829527
0.32845783 0.18739201 -0.29377478 -0.1455712 -0.0009181691 0.2977452 0.0186598 0.34473714
00000000: 8123 ed3d 17af 733e bb19 b2be b6f8 7d3e
00000010: 5cf1 863e 7e41 cf3c 1526 5dbe da39 65be
00000020: 667b 8a3e 5608 dabd 0d37 53be 7afb f63d
00000030: 7c00 183e 41a0 0e3e 70ad 20be 7eb5 683e
00000040: 3300 37be 5ec4 3bbe f0a2 b2bd 69f2 383e
00000050: 8c35 9f3c 38e5 5abe cf1f 22bc e1f0 adbd
00000060: 9f82 3cba 9b97 f0bd 44a3 a73e 0c13 c2bd
00000070: 27c4 8f3e 0d94 d2bc c2fa b5bd 56cd 09be
00000080: 3076 2e3d 1be2 893d e954 3bbe c85b dd3d
00000090: ad09 813e 3acc 5ebe fadc 1dbe 34fb 733e
000000a0: 179c 3e3e 965f 5cbe 1dd4 c5bd 4e82 66be
000000b0: 4932 1d3d eb67 be3d e20d 5a3d 2887 9bbe
000000c0: 3e8e ad3e 610b 8bbe 3049 063e 2528 4b3e
000000d0: e655 96bd a9d0 48be 3b93 963e e9c9 ddbd
000000e0: a02b a83e b1e3 3f3e a669 96be 9e10 15be
000000f0: 49b1 70ba 0f72 983e 70dc 983c 6381 b03e

layers.10.bias f4 [8]
-0.13349521 -0.16229348 0.031245776 0.24201787 0.06770419 -0.028265236 -0.13581932 -0.06588269
00000000: f8b2 08be 4330 26be 24f7 ff3c 88d3 773e
00000010: 7fa8 8a3d 7f8c e7bc 3814 0bbe 81ed 86bd

layers.12.weight f4 [6, 8]
-0.086752035 -0.33675292 -0.13395335 -0.060997363 -0.13582563 -0.016030975 0.081201 0.3176479
-0.27822387 -0.25090516 0.068111286 -0.03657596 0.3460912 -0.050850425 -0.34316814 0.013042806
0.154956 -0.33348674 -0.11068546 0.19276842 0.18686175 0.11938284 0.11729582 -0.20826629
-0.13555804 0.2106486 -0.103127986 -0.34082365 0.303722 -0.06361818 -0.09445952 0.30029628
0.026783437 -0.35263455 -0.10580962 0.27984345 -0.28529054 -0.022880891 -0.25147793 0.24120456
-0.269607 -0.0733509 0.0919149 0.17379522 0.00934404 0.24096335 -0.1289981 0.14546521
00000000: 0dab b1bd e16a acbe 112b 09be 5fd8 79bd
00000010: e015 0bbe 6453 83bc b64c a63d bfa2 a23e
00000020: 5c73 8ebe a476 80be ee7d 8b3d add0 15bd
00000030: de32 b13e 8948 50bd bcb3 afbe 7eb1 553c
00000040: c9ac 1e3e c6be aabe 0faf e2bd 1665 453e
00000050: b058 3f3e fe7e f43d ca38 f03d c243 55be
00000060: bacf 0abe 44b4 573e c434 d3bd 7080 aebe
00000070: 7381 9b3e 404a 82bd fe73 c1bd 6fc0 993e
00000080: f068 db3c 848c b4be b7b2 d8bd a447 8f3e
00000090: 9a11 92be b570 bbbc b7c1 80be 54fe 763e
000000a0: ee09 8abe ff38 96bd e13d bc3d 60f7 313e
000000b0: bf17 193c 19bf 763e 1418 04be d5f4 143e

layers.12.bias f4 [6]
-0.052443407 -0.23561685 -0.2669648 0.11874655 0.09277276 -0.24968956
00000000: e6ce 56bd 8b45 71be 9caf 88be 6431 f33d
00000010: a5ff bd3d 9fae 7fbe

layers.13.weight f4 [6, 8]
-0.20897835 -0.30148157 -0.21825382 -0.24093878 -0.090445235 -0.2312168 -0.34565225 0.0054159965
-0.027995706 0.09625223 -0.1354493 -0.0073442147 -0.32779518 0.034046393 0.11159997 -0.14789549
-0.23205025 0.029178347 0.18910573 0.33634123 -0.3462994 -0.17030011 -0.04863021 -0.012357119
-0.2933681 -0.23317415 0.24893256 -0.32553348 0.3152869 0.12300962 0.16792329 0.14125077
-0.33497712 -0.32113993 0.22845766 -0.21463674 -0.13006458 0.2599947 -0.025748858 -0.28472775
0.203773 0.05806175 -0.22146934 0.21507536 0.20041075 0.18386643 -0.014681559 -0.3497843
00000000: 6cfe 55be cb5b 9abe ee7d 5fbe a8b8 76be
00000010: 5a3b b9bd 19c4 6cbe 55f9 b0be ac78 b13b
00000020: 4057 e5bc e41f c53d 39b3 0abe bda7 f0bb
00000030: c5d4 a7be 3b74 0b3d 868e e43d ea71 17be
00000040: 959e 6dbe 6e07 ef3c efa4 413e eb34 ac3e
00000050: 284e b1be 2763 2ebe 7930 47bd 8375 4abc
00000060: 5834 96be 34c5 6ebe 2de8 7e3e 53ac a6be
00000070: 496d a13e 78ec fb3d 15f4 2b3e 0ba4 103e
00000080: 1f82 abbe 746c a4be cef0 693e bcc9 5bbe
00000090: a62f 05be 061e 853e 45ef d2bc d6c7 91be
000000a0: dfa9 503e 28d2 6d3d dcc8 62be b73c 5c3e
000000b0: 7a38 4d3e 7b47 3c3e ec8a 70bc ee16 b3be

layers.13.bias f4 [6]
-0.0127731925 -0.26944467 -0.054604065 0.18541469 0.10012978 0.24277449
00000000: a746 51bc a7f4 89be 83a8 5fbd 59dd 3d3e
00000010: d810 cd3d e099 783e
